…
/opt/conda/lib/python3.11/site-packages/lightning/pytorch/trainer/connectors/data_connector.py:442: PossibleUserWarning: The dataloader, val_dataloader, does not have many workers which may be a bottleneck. Consider increasing the value of the `num_workers` argument` (try 20 which is the number of cpus on this machine) in the `DataLoader` init to improve performance.
  rank_zero_warn(
Use GPU: True
Files already downloaded and verified
==========================================================================================
Layer (type:depth-idx)                   Output Shape              Param #
==========================================================================================
PLModel                                  [1, 10]                   --
├─WideNetwork: 1-1                       --                        84
│    └─Flatten: 2-1                      [1, 3072]                 --
│    └─Linear: 2-2                       [1, 42]                   129,066
│    └─ReLU: 2-3                         [1, 42]                   --
│    └─BatchNorm1d: 2-4                  [1, 42]                   84
│    └─Dropout: 2-5                      [1, 42]                   --
│    └─Linear: 2-6                       [1, 10]                   430
==========================================================================================
Total params: 129,664
Trainable params: 129,664
Non-trainable params: 0
Total mult-adds (Units.MEGABYTES): 0.13
==========================================================================================
Input size (MB): 0.01
Forward/backward pass size (MB): 0.00
Params size (MB): 0.52
Estimated Total Size (MB): 0.53
…
