…
/opt/conda/lib/python3.11/site-packages/lightning/pytorch/trainer/connectors/data_connector.py:442: PossibleUserWarning: The dataloader, val_dataloader, does not have many workers which may be a bottleneck. Consider increasing the value of the `num_workers` argument` (try 20 which is the number of cpus on this machine) in the `DataLoader` init to improve performance.
  rank_zero_warn(
Use GPU: True
Files already downloaded and verified
==========================================================================================
Layer (type:depth-idx)                   Output Shape              Param #
==========================================================================================
PLModel                                  [1, 10]                   --
├─DeepNetwork: 1-1                       --                        --
│    └─Flatten: 2-1                      [1, 3072]                 --
│    └─Sequential: 2-2                   [1, 35]                   --
│    │    └─Linear: 3-1                  [1, 35]                   107,555
│    │    └─ReLU: 3-2                    [1, 35]                   --
│    │    └─BatchNorm1d: 3-3             [1, 35]                   70
│    │    └─Dropout: 3-4                 [1, 35]                   --
│    │    └─Linear: 3-5                  [1, 35]                   1,260
│    │    └─ReLU: 3-6                    [1, 35]                   --
│    │    └─BatchNorm1d: 3-7             [1, 35]                   70
│    │    └─Linear: 3-8                  [1, 35]                   1,260
│    │    └─ReLU: 3-9                    [1, 35]                   --
│    │    └─BatchNorm1d: 3-10            [1, 35]                   70
│    │    └─Linear: 3-11                 [1, 35]                   1,260
│    │    └─ReLU: 3-12                   [1, 35]                   --
│    │    └─BatchNorm1d: 3-13            [1, 35]                   70
│    │    └─Linear: 3-14                 [1, 35]                   1,260
│    │    └─ReLU: 3-15                   [1, 35]                   --
│    │    └─BatchNorm1d: 3-16            [1, 35]                   70
│    │    └─Linear: 3-17                 [1, 35]                   1,260
│    │    └─ReLU: 3-18                   [1, 35]                   --
│    │    └─BatchNorm1d: 3-19            [1, 35]                   70
│    │    └─Linear: 3-20                 [1, 35]                   1,260
│    │    └─ReLU: 3-21                   [1, 35]                   --
│    │    └─BatchNorm1d: 3-22            [1, 35]                   70
│    │    └─Linear: 3-23                 [1, 35]                   1,260
│    │    └─ReLU: 3-24                   [1, 35]                   --
│    │    └─BatchNorm1d: 3-25            [1, 35]                   70
│    │    └─Linear: 3-26                 [1, 35]                   1,260
│    │    └─ReLU: 3-27                   [1, 35]                   --
│    │    └─BatchNorm1d: 3-28            [1, 35]                   70
│    │    └─Linear: 3-29                 [1, 35]                   1,260
│    │    └─ReLU: 3-30                   [1, 35]                   --
│    │    └─BatchNorm1d: 3-31            [1, 35]                   70
│    │    └─Linear: 3-32                 [1, 35]                   1,260
│    │    └─ReLU: 3-33                   [1, 35]                   --
│    │    └─BatchNorm1d: 3-34            [1, 35]                   70
│    │    └─Linear: 3-35                 [1, 35]                   1,260
│    │    └─ReLU: 3-36                   [1, 35]                   --
│    │    └─BatchNorm1d: 3-37            [1, 35]                   70
│    │    └─Linear: 3-38                 [1, 35]                   1,260
│    │    └─ReLU: 3-39                   [1, 35]                   --
│    │    └─BatchNorm1d: 3-40            [1, 35]                   70
│    │    └─Linear: 3-41                 [1, 35]                   1,260
│    │    └─ReLU: 3-42                   [1, 35]                   --
│    │    └─BatchNorm1d: 3-43            [1, 35]                   70
│    │    └─Linear: 3-44                 [1, 35]                   1,260
│    │    └─ReLU: 3-45                   [1, 35]                   --
│    │    └─BatchNorm1d: 3-46            [1, 35]                   70
│    │    └─Linear: 3-47                 [1, 35]                   1,260
│    │    └─ReLU: 3-48                   [1, 35]                   --
│    │    └─BatchNorm1d: 3-49            [1, 35]                   70
│    │    └─Linear: 3-50                 [1, 35]                   1,260
│    │    └─ReLU: 3-51                   [1, 35]                   --
│    │    └─BatchNorm1d: 3-52            [1, 35]                   70
│    │    └─Linear: 3-53                 [1, 35]                   1,260
│    │    └─ReLU: 3-54                   [1, 35]                   --
│    │    └─BatchNorm1d: 3-55            [1, 35]                   70
│    │    └─Linear: 3-56                 [1, 35]                   1,260
│    │    └─ReLU: 3-57                   [1, 35]                   --
│    │    └─BatchNorm1d: 3-58            [1, 35]                   70
│    └─Linear: 2-3                       [1, 10]                   360
==========================================================================================
Total params: 131,925
Trainable params: 131,925
Non-trainable params: 0
Total mult-adds (Units.MEGABYTES): 0.13
==========================================================================================
Input size (MB): 0.01
Forward/backward pass size (MB): 0.01
Params size (MB): 0.53
Estimated Total Size (MB): 0.55
…
